…
__________________________________________________________________________________________________
 Layer (type)                   Output Shape         Param #     Connected to                     
==================================================================================================
 srs_input (InputLayer)         [(None, 20, 20, 153  0           []                               
                                6)]                                                               
                                                                                                  
 conv2d_135 (Conv2D)            (None, 20, 20, 512)  7078400     ['srs_input[0][0]']              
                                                                                                  
 conv2d_136 (Conv2D)            (None, 20, 20, 128)  65664       ['conv2d_135[0][0]']             
                                                                                                  
 batch_normalization_111 (Batch  (None, 20, 20, 128)  512        ['conv2d_136[0][0]']             
 Normalization)                                                                                   
                                                                                                  
 activation_78 (Activation)     (None, 20, 20, 128)  0           ['batch_normalization_111[0][0]']
                                                                                                  
 conv2d_137 (Conv2D)            (None, 20, 20, 128)  147584      ['activation_78[0][0]']          
                                                                                                  
 batch_normalization_112 (Batch  (None, 20, 20, 128)  512        ['conv2d_137[0][0]']             
 Normalization)                                                                                   
                                                                                                  
 activation_79 (Activation)     (None, 20, 20, 128)  0           ['batch_normalization_112[0][0]']
                                                                                                  
 conv2d_138 (Conv2D)            (None, 20, 20, 256)  33024       ['activation_79[0][0]']          
                                                                                                  
 conv2d_139 (Conv2D)            (None, 20, 20, 256)  131328      ['conv2d_135[0][0]']             
                                                                                                  
 batch_normalization_113 (Batch  (None, 20, 20, 256)  1024       ['conv2d_138[0][0]']             
 Normalization)                                                                                   
                                                                                                  
 batch_normalization_114 (Batch  (None, 20, 20, 256)  1024       ['conv2d_139[0][0]']             
 Normalization)                                                                                   
                                                                                                  
 add_21 (Add)                   (None, 20, 20, 256)  0           ['batch_normalization_113[0][0]',
                                                                  'batch_normalization_114[0][0]']
                                                                                                  
 activation_80 (Activation)     (None, 20, 20, 256)  0           ['add_21[0][0]']                 
                                                                                                  
 conv2d_140 (Conv2D)            (None, 20, 20, 256)  65792       ['activation_80[0][0]']          
                                                                                                  
 radio_input (InputLayer)       [(None, 5, 4, 14)]   0           []                               
                                                                                                  
 batch_normalization_115 (Batch  (None, 20, 20, 256)  1024       ['conv2d_140[0][0]']             
 Normalization)                                                                                   
                                                                                                  
 normalization_10 (Normalizatio  (None, 5, 4, 14)    29          ['radio_input[0][0]']            
 n)                                                                                               
                                                                                                  
 activation_81 (Activation)     (None, 20, 20, 256)  0           ['batch_normalization_115[0][0]']
                                                                                                  
 conv2d_132 (Conv2D)            (None, 5, 4, 32)     4064        ['normalization_10[0][0]']       
                                                                                                  
 conv2d_141 (Conv2D)            (None, 20, 20, 256)  590080      ['activation_81[0][0]']          
                                                                                                  
 batch_normalization_108 (Batch  (None, 5, 4, 32)    128         ['conv2d_132[0][0]']             
 Normalization)                                                                                   
                                                                                                  
 batch_normalization_116 (Batch  (None, 20, 20, 256)  1024       ['conv2d_141[0][0]']             
 Normalization)                                                                                   
                                                                                                  
 activation_75 (Activation)     (None, 5, 4, 32)     0           ['batch_normalization_108[0][0]']
                                                                                                  
 activation_82 (Activation)     (None, 20, 20, 256)  0           ['batch_normalization_116[0][0]']
                                                                                                  
 zero_padding2d_11 (ZeroPadding  (None, 5, 5, 32)    0           ['activation_75[0][0]']          
 2D)                                                                                              
                                                                                                  
 conv2d_142 (Conv2D)            (None, 20, 20, 512)  131584      ['activation_82[0][0]']          
                                                                                                  
 conv2d_143 (Conv2D)            (None, 20, 20, 512)  131584      ['activation_80[0][0]']          
                                                                                                  
 conv2d_133 (Conv2D)            (None, 5, 5, 64)     18496       ['zero_padding2d_11[0][0]']      
                                                                                                  
 batch_normalization_117 (Batch  (None, 20, 20, 512)  2048       ['conv2d_142[0][0]']             
 Normalization)                                                                                   
                                                                                                  
 batch_normalization_118 (Batch  (None, 20, 20, 512)  2048       ['conv2d_143[0][0]']             
 Normalization)                                                                                   
                                                                                                  
 batch_normalization_109 (Batch  (None, 5, 5, 64)    256         ['conv2d_133[0][0]']             
 Normalization)                                                                                   
                                                                                                  
 add_22 (Add)                   (None, 20, 20, 512)  0           ['batch_normalization_117[0][0]',
                                                                  'batch_normalization_118[0][0]']
                                                                                                  
 activation_76 (Activation)     (None, 5, 5, 64)     0           ['batch_normalization_109[0][0]']
                                                                                                  
 activation_83 (Activation)     (None, 20, 20, 512)  0           ['add_22[0][0]']                 
                                                                                                  
 conv2d_134 (Conv2D)            (None, 5, 5, 128)    32896       ['activation_76[0][0]']          
                                                                                                  
 average_pooling2d_22 (AverageP  (None, 10, 10, 512)  0          ['activation_83[0][0]']          
 ooling2D)                                                                                        
                                                                                                  
 batch_normalization_110 (Batch  (None, 5, 5, 128)   512         ['conv2d_134[0][0]']             
 Normalization)                                                                                   
                                                                                                  
 average_pooling2d_23 (AverageP  (None, 5, 5, 512)   0           ['average_pooling2d_22[0][0]']   
 ooling2D)                                                                                        
                                                                                                  
 activation_77 (Activation)     (None, 5, 5, 128)    0           ['batch_normalization_110[0][0]']
                                                                                                  
 batch_normalization_119 (Batch  (None, 5, 5, 512)   2048        ['average_pooling2d_23[0][0]']   
 Normalization)                                                                                   
                                                                                                  
 concatenate_12 (Concatenate)   (None, 5, 5, 640)    0           ['activation_77[0][0]',          
                                                                  'batch_normalization_119[0][0]']
                                                                                                  
 conv2d_144 (Conv2D)            (None, 5, 5, 1024)   656384      ['concatenate_12[0][0]']         
                                                                                                  
 reshape_21 (Reshape)           (None, 25, 1024)     0           ['conv2d_144[0][0]']             
                                                                                                  
 lstm_11 (LSTM)                 (None, 25, 128)      590336      ['reshape_21[0][0]']             
                                                                                                  
 flatten_10 (Flatten)           (None, 3200)         0           ['lstm_11[0][0]']                
                                                                                                  
 dense_32 (Dense)               (None, 1024)         3277824     ['flatten_10[0][0]']             
                                                                                                  
 dropout_9 (Dropout)            (None, 1024)         0           ['dense_32[0][0]']               
                                                                                                  
 dense_33 (Dense)               (None, 2048)         2099200     ['dropout_9[0][0]']              
                                                                                                  
 dense_34 (Dense)               (None, 6144)         12589056    ['dense_33[0][0]']               
                                                                                                  
 reshape_22 (Reshape)           (None, 4, 1536)      0           ['dense_34[0][0]']               
                                                                                                  
 denorm_output (Lambda)         (None, 4, 1536)      0           ['reshape_22[0][0]']             
                                                                                                  
==================================================================================================
Total params: 27,655,485
Trainable params: 27,649,376
Non-trainable params: 6,109
__________________________________________________________________________________________________
…
__________________________________________________________________________________________________
 Layer (type)                   Output Shape         Param #     Connected to                     
==================================================================================================
 srs_input (InputLayer)         [(None, 20, 20, 153  0           []                               
                                6)]                                                               
                                                                                                  
 conv2d_148 (Conv2D)            (None, 20, 20, 512)  7078400     ['srs_input[0][0]']              
                                                                                                  
 conv2d_149 (Conv2D)            (None, 20, 20, 128)  65664       ['conv2d_148[0][0]']             
                                                                                                  
 batch_normalization_123 (Batch  (None, 20, 20, 128)  512        ['conv2d_149[0][0]']             
 Normalization)                                                                                   
                                                                                                  
 activation_87 (Activation)     (None, 20, 20, 128)  0           ['batch_normalization_123[0][0]']
                                                                                                  
 conv2d_150 (Conv2D)            (None, 20, 20, 128)  147584      ['activation_87[0][0]']          
                                                                                                  
 batch_normalization_124 (Batch  (None, 20, 20, 128)  512        ['conv2d_150[0][0]']             
 Normalization)                                                                                   
                                                                                                  
 activation_88 (Activation)     (None, 20, 20, 128)  0           ['batch_normalization_124[0][0]']
                                                                                                  
 conv2d_151 (Conv2D)            (None, 20, 20, 256)  33024       ['activation_88[0][0]']          
                                                                                                  
 conv2d_152 (Conv2D)            (None, 20, 20, 256)  131328      ['conv2d_148[0][0]']             
                                                                                                  
 batch_normalization_125 (Batch  (None, 20, 20, 256)  1024       ['conv2d_151[0][0]']             
 Normalization)                                                                                   
                                                                                                  
 batch_normalization_126 (Batch  (None, 20, 20, 256)  1024       ['conv2d_152[0][0]']             
 Normalization)                                                                                   
                                                                                                  
 add_23 (Add)                   (None, 20, 20, 256)  0           ['batch_normalization_125[0][0]',
                                                                  'batch_normalization_126[0][0]']
                                                                                                  
 activation_89 (Activation)     (None, 20, 20, 256)  0           ['add_23[0][0]']                 
                                                                                                  
 radio_input (InputLayer)       [(None, 5, 4, 14)]   0           []                               
                                                                                                  
 conv2d_153 (Conv2D)            (None, 20, 20, 256)  65792       ['activation_89[0][0]']          
                                                                                                  
 normalization_11 (Normalizatio  (None, 5, 4, 14)    29          ['radio_input[0][0]']            
 n)                                                                                               
                                                                                                  
 batch_normalization_127 (Batch  (None, 20, 20, 256)  1024       ['conv2d_153[0][0]']             
 Normalization)                                                                                   
                                                                                                  
 conv2d_145 (Conv2D)            (None, 5, 4, 32)     4064        ['normalization_11[0][0]']       
                                                                                                  
 activation_90 (Activation)     (None, 20, 20, 256)  0           ['batch_normalization_127[0][0]']
                                                                                                  
 batch_normalization_120 (Batch  (None, 5, 4, 32)    128         ['conv2d_145[0][0]']             
 Normalization)                                                                                   
                                                                                                  
 conv2d_154 (Conv2D)            (None, 20, 20, 256)  590080      ['activation_90[0][0]']          
                                                                                                  
 activation_84 (Activation)     (None, 5, 4, 32)     0           ['batch_normalization_120[0][0]']
                                                                                                  
 batch_normalization_128 (Batch  (None, 20, 20, 256)  1024       ['conv2d_154[0][0]']             
 Normalization)                                                                                   
                                                                                                  
 zero_padding2d_12 (ZeroPadding  (None, 5, 5, 32)    0           ['activation_84[0][0]']          
 2D)                                                                                              
                                                                                                  
 activation_91 (Activation)     (None, 20, 20, 256)  0           ['batch_normalization_128[0][0]']
                                                                                                  
 conv2d_146 (Conv2D)            (None, 5, 5, 64)     18496       ['zero_padding2d_12[0][0]']      
                                                                                                  
 conv2d_155 (Conv2D)            (None, 20, 20, 512)  131584      ['activation_91[0][0]']          
                                                                                                  
 conv2d_156 (Conv2D)            (None, 20, 20, 512)  131584      ['activation_89[0][0]']          
                                                                                                  
 batch_normalization_121 (Batch  (None, 5, 5, 64)    256         ['conv2d_146[0][0]']             
 Normalization)                                                                                   
                                                                                                  
 batch_normalization_129 (Batch  (None, 20, 20, 512)  2048       ['conv2d_155[0][0]']             
 Normalization)                                                                                   
                                                                                                  
 batch_normalization_130 (Batch  (None, 20, 20, 512)  2048       ['conv2d_156[0][0]']             
 Normalization)                                                                                   
                                                                                                  
 activation_85 (Activation)     (None, 5, 5, 64)     0           ['batch_normalization_121[0][0]']
                                                                                                  
 add_24 (Add)                   (None, 20, 20, 512)  0           ['batch_normalization_129[0][0]',
                                                                  'batch_normalization_130[0][0]']
                                                                                                  
 conv2d_147 (Conv2D)            (None, 5, 5, 128)    32896       ['activation_85[0][0]']          
                                                                                                  
 activation_92 (Activation)     (None, 20, 20, 512)  0           ['add_24[0][0]']                 
                                                                                                  
 batch_normalization_122 (Batch  (None, 5, 5, 128)   512         ['conv2d_147[0][0]']             
 Normalization)                                                                                   
                                                                                                  
 average_pooling2d_24 (AverageP  (None, 10, 10, 512)  0          ['activation_92[0][0]']          
 ooling2D)                                                                                        
                                                                                                  
 activation_86 (Activation)     (None, 5, 5, 128)    0           ['batch_normalization_122[0][0]']
                                                                                                  
 average_pooling2d_25 (AverageP  (None, 5, 5, 512)   0           ['average_pooling2d_24[0][0]']   
 ooling2D)                                                                                        
                                                                                                  
 concatenate_13 (Concatenate)   (None, 5, 5, 640)    0           ['activation_86[0][0]',          
                                                                  'average_pooling2d_25[0][0]']   
                                                                                                  
 conv2d_157 (Conv2D)            (None, 5, 5, 1024)   656384      ['concatenate_13[0][0]']         
                                                                                                  
 reshape_23 (Reshape)           (None, 25, 1024)     0           ['conv2d_157[0][0]']             
                                                                                                  
 lstm_12 (LSTM)                 (None, 25, 128)      590336      ['reshape_23[0][0]']             
                                                                                                  
 flatten_11 (Flatten)           (None, 3200)         0           ['lstm_12[0][0]']                
                                                                                                  
 dense_35 (Dense)               (None, 1024)         3277824     ['flatten_11[0][0]']             
                                                                                                  
 dropout_10 (Dropout)           (None, 1024)         0           ['dense_35[0][0]']               
                                                                                                  
 dense_36 (Dense)               (None, 2048)         2099200     ['dropout_10[0][0]']             
                                                                                                  
 dense_37 (Dense)               (None, 6144)         12589056    ['dense_36[0][0]']               
                                                                                                  
 reshape_24 (Reshape)           (None, 4, 1536)      0           ['dense_37[0][0]']               
                                                                                                  
 denorm_output (Lambda)         (None, 4, 1536)      0           ['reshape_24[0][0]']             
                                                                                                  
==================================================================================================
Total params: 27,653,437
Trainable params: 27,648,352
Non-trainable params: 5,085
__________________________________________________________________________________________________
…
__________________________________________________________________________________________________
 Layer (type)                   Output Shape         Param #     Connected to                     
==================================================================================================
 srs_input (InputLayer)         [(None, 20, 20, 153  0           []                               
                                6)]                                                               
                                                                                                  
 conv2d_24 (Conv2D)             (None, 20, 20, 512)  7078400     ['srs_input[0][0]']              
                                                                                                  
 conv2d_25 (Conv2D)             (None, 20, 20, 256)  131328      ['conv2d_24[0][0]']              
                                                                                                  
 batch_normalization_21 (BatchN  (None, 20, 20, 256)  1024       ['conv2d_25[0][0]']              
 ormalization)                                                                                    
                                                                                                  
 activation_17 (Activation)     (None, 20, 20, 256)  0           ['batch_normalization_21[0][0]'] 
                                                                                                  
 conv2d_26 (Conv2D)             (None, 20, 20, 256)  590080      ['activation_17[0][0]']          
                                                                                                  
 batch_normalization_22 (BatchN  (None, 20, 20, 256)  1024       ['conv2d_26[0][0]']              
 ormalization)                                                                                    
                                                                                                  
 activation_18 (Activation)     (None, 20, 20, 256)  0           ['batch_normalization_22[0][0]'] 
                                                                                                  
 conv2d_27 (Conv2D)             (None, 20, 20, 512)  131584      ['activation_18[0][0]']          
                                                                                                  
 conv2d_28 (Conv2D)             (None, 20, 20, 512)  262656      ['conv2d_24[0][0]']              
                                                                                                  
 batch_normalization_23 (BatchN  (None, 20, 20, 512)  2048       ['conv2d_27[0][0]']              
 ormalization)                                                                                    
                                                                                                  
 batch_normalization_24 (BatchN  (None, 20, 20, 512)  2048       ['conv2d_28[0][0]']              
 ormalization)                                                                                    
                                                                                                  
 add_3 (Add)                    (None, 20, 20, 512)  0           ['batch_normalization_23[0][0]', 
                                                                  'batch_normalization_24[0][0]'] 
                                                                                                  
 activation_19 (Activation)     (None, 20, 20, 512)  0           ['add_3[0][0]']                  
                                                                                                  
 radio_input (InputLayer)       [(None, 5, 4, 14)]   0           []                               
                                                                                                  
 conv2d_29 (Conv2D)             (None, 20, 20, 256)  131328      ['activation_19[0][0]']          
                                                                                                  
 normalization_2 (Normalization  (None, 5, 4, 14)    29          ['radio_input[0][0]']            
 )                                                                                                
                                                                                                  
 batch_normalization_25 (BatchN  (None, 20, 20, 256)  1024       ['conv2d_29[0][0]']              
 ormalization)                                                                                    
                                                                                                  
 conv2d_21 (Conv2D)             (None, 5, 4, 32)     4064        ['normalization_2[0][0]']        
                                                                                                  
 activation_20 (Activation)     (None, 20, 20, 256)  0           ['batch_normalization_25[0][0]'] 
                                                                                                  
 batch_normalization_18 (BatchN  (None, 5, 4, 32)    128         ['conv2d_21[0][0]']              
 ormalization)                                                                                    
                                                                                                  
 conv2d_30 (Conv2D)             (None, 20, 20, 256)  590080      ['activation_20[0][0]']          
                                                                                                  
 activation_14 (Activation)     (None, 5, 4, 32)     0           ['batch_normalization_18[0][0]'] 
                                                                                                  
 batch_normalization_26 (BatchN  (None, 20, 20, 256)  1024       ['conv2d_30[0][0]']              
 ormalization)                                                                                    
                                                                                                  
 zero_padding2d_2 (ZeroPadding2  (None, 5, 5, 32)    0           ['activation_14[0][0]']          
 D)                                                                                               
                                                                                                  
 activation_21 (Activation)     (None, 20, 20, 256)  0           ['batch_normalization_26[0][0]'] 
                                                                                                  
 conv2d_22 (Conv2D)             (None, 5, 5, 64)     18496       ['zero_padding2d_2[0][0]']       
                                                                                                  
 conv2d_31 (Conv2D)             (None, 20, 20, 512)  131584      ['activation_21[0][0]']          
                                                                                                  
 conv2d_32 (Conv2D)             (None, 20, 20, 512)  262656      ['activation_19[0][0]']          
                                                                                                  
 batch_normalization_19 (BatchN  (None, 5, 5, 64)    256         ['conv2d_22[0][0]']              
 ormalization)                                                                                    
                                                                                                  
 batch_normalization_27 (BatchN  (None, 20, 20, 512)  2048       ['conv2d_31[0][0]']              
 ormalization)                                                                                    
                                                                                                  
 batch_normalization_28 (BatchN  (None, 20, 20, 512)  2048       ['conv2d_32[0][0]']              
 ormalization)                                                                                    
                                                                                                  
 activation_15 (Activation)     (None, 5, 5, 64)     0           ['batch_normalization_19[0][0]'] 
                                                                                                  
 add_4 (Add)                    (None, 20, 20, 512)  0           ['batch_normalization_27[0][0]', 
                                                                  'batch_normalization_28[0][0]'] 
                                                                                                  
 conv2d_23 (Conv2D)             (None, 5, 5, 128)    32896       ['activation_15[0][0]']          
                                                                                                  
 activation_22 (Activation)     (None, 20, 20, 512)  0           ['add_4[0][0]']                  
                                                                                                  
 batch_normalization_20 (BatchN  (None, 5, 5, 128)   512         ['conv2d_23[0][0]']              
 ormalization)                                                                                    
                                                                                                  
 average_pooling2d_2 (AveragePo  (None, 10, 10, 512)  0          ['activation_22[0][0]']          
 oling2D)                                                                                         
                                                                                                  
 activation_16 (Activation)     (None, 5, 5, 128)    0           ['batch_normalization_20[0][0]'] 
                                                                                                  
 average_pooling2d_3 (AveragePo  (None, 5, 5, 512)   0           ['average_pooling2d_2[0][0]']    
 oling2D)                                                                                         
                                                                                                  
 concatenate_1 (Concatenate)    (None, 5, 5, 640)    0           ['activation_16[0][0]',          
                                                                  'average_pooling2d_3[0][0]']    
                                                                                                  
 conv2d_33 (Conv2D)             (None, 5, 5, 1024)   656384      ['concatenate_1[0][0]']          
                                                                                                  
 reshape_2 (Reshape)            (None, 25, 1024)     0           ['conv2d_33[0][0]']              
                                                                                                  
 lstm_1 (LSTM)                  (None, 25, 128)      590336      ['reshape_2[0][0]']              
                                                                                                  
 flatten_1 (Flatten)            (None, 3200)         0           ['lstm_1[0][0]']                 
                                                                                                  
 dense_3 (Dense)                (None, 1024)         3277824     ['flatten_1[0][0]']              
                                                                                                  
 dropout_1 (Dropout)            (None, 1024)         0           ['dense_3[0][0]']                
                                                                                                  
 dense_4 (Dense)                (None, 2048)         2099200     ['dropout_1[0][0]']              
                                                                                                  
 dropout_2 (Dropout)            (None, 2048)         0           ['dense_4[0][0]']                
                                                                                                  
 dense_5 (Dense)                (None, 6144)         12589056    ['dropout_2[0][0]']              
                                                                                                  
 reshape_3 (Reshape)            (None, 4, 1536)      0           ['dense_5[0][0]']                
                                                                                                  
 denorm_output (Lambda)         (None, 4, 1536)      0           ['reshape_3[0][0]']              
                                                                                                  
==================================================================================================
Total params: 28,591,165
Trainable params: 28,584,544
Non-trainable params: 6,621
__________________________________________________________________________________________________
…
__________________________________________________________________________________________________
 Layer (type)                   Output Shape         Param #     Connected to                     
==================================================================================================
 srs_input (InputLayer)         [(None, 20, 20, 153  0           []                               
                                6)]                                                               
                                                                                                  
 conv2d_58 (Conv2D)             (None, 20, 20, 512)  7078400     ['srs_input[0][0]']              
                                                                                                  
 conv2d_59 (Conv2D)             (None, 20, 20, 256)  131328      ['conv2d_58[0][0]']              
                                                                                                  
 batch_normalization_50 (BatchN  (None, 20, 20, 256)  1024       ['conv2d_59[0][0]']              
 ormalization)                                                                                    
                                                                                                  
 activation_40 (Activation)     (None, 20, 20, 256)  0           ['batch_normalization_50[0][0]'] 
                                                                                                  
 conv2d_60 (Conv2D)             (None, 20, 20, 256)  590080      ['activation_40[0][0]']          
                                                                                                  
 batch_normalization_51 (BatchN  (None, 20, 20, 256)  1024       ['conv2d_60[0][0]']              
 ormalization)                                                                                    
                                                                                                  
 activation_41 (Activation)     (None, 20, 20, 256)  0           ['batch_normalization_51[0][0]'] 
                                                                                                  
 conv2d_61 (Conv2D)             (None, 20, 20, 512)  131584      ['activation_41[0][0]']          
                                                                                                  
 conv2d_62 (Conv2D)             (None, 20, 20, 512)  262656      ['conv2d_58[0][0]']              
                                                                                                  
 batch_normalization_52 (BatchN  (None, 20, 20, 512)  2048       ['conv2d_61[0][0]']              
 ormalization)                                                                                    
                                                                                                  
 batch_normalization_53 (BatchN  (None, 20, 20, 512)  2048       ['conv2d_62[0][0]']              
 ormalization)                                                                                    
                                                                                                  
 add_8 (Add)                    (None, 20, 20, 512)  0           ['batch_normalization_52[0][0]', 
                                                                  'batch_normalization_53[0][0]'] 
                                                                                                  
 activation_42 (Activation)     (None, 20, 20, 512)  0           ['add_8[0][0]']                  
                                                                                                  
 radio_input (InputLayer)       [(None, 5, 4, 14)]   0           []                               
                                                                                                  
 conv2d_63 (Conv2D)             (None, 20, 20, 256)  131328      ['activation_42[0][0]']          
                                                                                                  
 normalization_5 (Normalization  (None, 5, 4, 14)    29          ['radio_input[0][0]']            
 )                                                                                                
                                                                                                  
 batch_normalization_54 (BatchN  (None, 20, 20, 256)  1024       ['conv2d_63[0][0]']              
 ormalization)                                                                                    
                                                                                                  
 conv2d_55 (Conv2D)             (None, 5, 4, 32)     4064        ['normalization_5[0][0]']        
                                                                                                  
 activation_43 (Activation)     (None, 20, 20, 256)  0           ['batch_normalization_54[0][0]'] 
                                                                                                  
 batch_normalization_47 (BatchN  (None, 5, 4, 32)    128         ['conv2d_55[0][0]']              
 ormalization)                                                                                    
                                                                                                  
 conv2d_64 (Conv2D)             (None, 20, 20, 256)  590080      ['activation_43[0][0]']          
                                                                                                  
 activation_37 (Activation)     (None, 5, 4, 32)     0           ['batch_normalization_47[0][0]'] 
                                                                                                  
 batch_normalization_55 (BatchN  (None, 20, 20, 256)  1024       ['conv2d_64[0][0]']              
 ormalization)                                                                                    
                                                                                                  
 zero_padding2d_5 (ZeroPadding2  (None, 5, 5, 32)    0           ['activation_37[0][0]']          
 D)                                                                                               
                                                                                                  
 activation_44 (Activation)     (None, 20, 20, 256)  0           ['batch_normalization_55[0][0]'] 
                                                                                                  
 conv2d_56 (Conv2D)             (None, 5, 5, 64)     18496       ['zero_padding2d_5[0][0]']       
                                                                                                  
 conv2d_65 (Conv2D)             (None, 20, 20, 512)  131584      ['activation_44[0][0]']          
                                                                                                  
 conv2d_66 (Conv2D)             (None, 20, 20, 512)  262656      ['activation_42[0][0]']          
                                                                                                  
 batch_normalization_48 (BatchN  (None, 5, 5, 64)    256         ['conv2d_56[0][0]']              
 ormalization)                                                                                    
                                                                                                  
 batch_normalization_56 (BatchN  (None, 20, 20, 512)  2048       ['conv2d_65[0][0]']              
 ormalization)                                                                                    
                                                                                                  
 batch_normalization_57 (BatchN  (None, 20, 20, 512)  2048       ['conv2d_66[0][0]']              
 ormalization)                                                                                    
                                                                                                  
 activation_38 (Activation)     (None, 5, 5, 64)     0           ['batch_normalization_48[0][0]'] 
                                                                                                  
 add_9 (Add)                    (None, 20, 20, 512)  0           ['batch_normalization_56[0][0]', 
                                                                  'batch_normalization_57[0][0]'] 
                                                                                                  
 conv2d_57 (Conv2D)             (None, 5, 5, 128)    32896       ['activation_38[0][0]']          
                                                                                                  
 activation_45 (Activation)     (None, 20, 20, 512)  0           ['add_9[0][0]']                  
                                                                                                  
 batch_normalization_49 (BatchN  (None, 5, 5, 128)   512         ['conv2d_57[0][0]']              
 ormalization)                                                                                    
                                                                                                  
 average_pooling2d_6 (AveragePo  (None, 10, 10, 512)  0          ['activation_45[0][0]']          
 oling2D)                                                                                         
                                                                                                  
 activation_39 (Activation)     (None, 5, 5, 128)    0           ['batch_normalization_49[0][0]'] 
                                                                                                  
 average_pooling2d_7 (AveragePo  (None, 5, 5, 512)   0           ['average_pooling2d_6[0][0]']    
 oling2D)                                                                                         
                                                                                                  
 concatenate_3 (Concatenate)    (None, 5, 5, 640)    0           ['activation_39[0][0]',          
                                                                  'average_pooling2d_7[0][0]']    
                                                                                                  
 conv2d_67 (Conv2D)             (None, 5, 5, 1024)   656384      ['concatenate_3[0][0]']          
                                                                                                  
 reshape_6 (Reshape)            (None, 25, 1024)     0           ['conv2d_67[0][0]']              
                                                                                                  
 lstm_3 (LSTM)                  (None, 25, 128)      590336      ['reshape_6[0][0]']              
                                                                                                  
 flatten_3 (Flatten)            (None, 3200)         0           ['lstm_3[0][0]']                 
                                                                                                  
 dense_9 (Dense)                (None, 1024)         3277824     ['flatten_3[0][0]']              
                                                                                                  
 dropout_5 (Dropout)            (None, 1024)         0           ['dense_9[0][0]']                
                                                                                                  
 dense_10 (Dense)               (None, 2048)         2099200     ['dropout_5[0][0]']              
                                                                                                  
 dense_11 (Dense)               (None, 6144)         12589056    ['dense_10[0][0]']               
                                                                                                  
 reshape_7 (Reshape)            (None, 4, 1536)      0           ['dense_11[0][0]']               
                                                                                                  
 denorm_output (Lambda)         (None, 4, 1536)      0           ['reshape_7[0][0]']              
                                                                                                  
==================================================================================================
Total params: 28,591,165
Trainable params: 28,584,544
Non-trainable params: 6,621
__________________________________________________________________________________________________
…
__________________________________________________________________________________________________
 Layer (type)                   Output Shape         Param #     Connected to                     
==================================================================================================
 srs_input (InputLayer)         [(None, 20, 20, 153  0           []                               
                                6)]                                                               
                                                                                                  
 conv2d_71 (Conv2D)             (None, 20, 20, 512)  7078400     ['srs_input[0][0]']              
                                                                                                  
 conv2d_72 (Conv2D)             (None, 20, 20, 256)  131328      ['conv2d_71[0][0]']              
                                                                                                  
 batch_normalization_61 (BatchN  (None, 20, 20, 256)  1024       ['conv2d_72[0][0]']              
 ormalization)                                                                                    
                                                                                                  
 activation_49 (Activation)     (None, 20, 20, 256)  0           ['batch_normalization_61[0][0]'] 
                                                                                                  
 conv2d_73 (Conv2D)             (None, 20, 20, 256)  590080      ['activation_49[0][0]']          
                                                                                                  
 batch_normalization_62 (BatchN  (None, 20, 20, 256)  1024       ['conv2d_73[0][0]']              
 ormalization)                                                                                    
                                                                                                  
 activation_50 (Activation)     (None, 20, 20, 256)  0           ['batch_normalization_62[0][0]'] 
                                                                                                  
 conv2d_74 (Conv2D)             (None, 20, 20, 512)  131584      ['activation_50[0][0]']          
                                                                                                  
 conv2d_75 (Conv2D)             (None, 20, 20, 512)  262656      ['conv2d_71[0][0]']              
                                                                                                  
 batch_normalization_63 (BatchN  (None, 20, 20, 512)  2048       ['conv2d_74[0][0]']              
 ormalization)                                                                                    
                                                                                                  
 batch_normalization_64 (BatchN  (None, 20, 20, 512)  2048       ['conv2d_75[0][0]']              
 ormalization)                                                                                    
                                                                                                  
 add_10 (Add)                   (None, 20, 20, 512)  0           ['batch_normalization_63[0][0]', 
                                                                  'batch_normalization_64[0][0]'] 
                                                                                                  
 activation_51 (Activation)     (None, 20, 20, 512)  0           ['add_10[0][0]']                 
                                                                                                  
 radio_input (InputLayer)       [(None, 5, 4, 14)]   0           []                               
                                                                                                  
 conv2d_76 (Conv2D)             (None, 20, 20, 256)  131328      ['activation_51[0][0]']          
                                                                                                  
 normalization_6 (Normalization  (None, 5, 4, 14)    29          ['radio_input[0][0]']            
 )                                                                                                
                                                                                                  
 batch_normalization_65 (BatchN  (None, 20, 20, 256)  1024       ['conv2d_76[0][0]']              
 ormalization)                                                                                    
                                                                                                  
 conv2d_68 (Conv2D)             (None, 5, 4, 32)     4064        ['normalization_6[0][0]']        
                                                                                                  
 activation_52 (Activation)     (None, 20, 20, 256)  0           ['batch_normalization_65[0][0]'] 
                                                                                                  
 batch_normalization_58 (BatchN  (None, 5, 4, 32)    128         ['conv2d_68[0][0]']              
 ormalization)                                                                                    
                                                                                                  
 conv2d_77 (Conv2D)             (None, 20, 20, 256)  590080      ['activation_52[0][0]']          
                                                                                                  
 activation_46 (Activation)     (None, 5, 4, 32)     0           ['batch_normalization_58[0][0]'] 
                                                                                                  
 batch_normalization_66 (BatchN  (None, 20, 20, 256)  1024       ['conv2d_77[0][0]']              
 ormalization)                                                                                    
                                                                                                  
 zero_padding2d_6 (ZeroPadding2  (None, 5, 5, 32)    0           ['activation_46[0][0]']          
 D)                                                                                               
                                                                                                  
 activation_53 (Activation)     (None, 20, 20, 256)  0           ['batch_normalization_66[0][0]'] 
                                                                                                  
 conv2d_69 (Conv2D)             (None, 5, 5, 64)     18496       ['zero_padding2d_6[0][0]']       
                                                                                                  
 conv2d_78 (Conv2D)             (None, 20, 20, 512)  131584      ['activation_53[0][0]']          
                                                                                                  
 conv2d_79 (Conv2D)             (None, 20, 20, 512)  262656      ['activation_51[0][0]']          
                                                                                                  
 batch_normalization_59 (BatchN  (None, 5, 5, 64)    256         ['conv2d_69[0][0]']              
 ormalization)                                                                                    
                                                                                                  
 batch_normalization_67 (BatchN  (None, 20, 20, 512)  2048       ['conv2d_78[0][0]']              
 ormalization)                                                                                    
                                                                                                  
 batch_normalization_68 (BatchN  (None, 20, 20, 512)  2048       ['conv2d_79[0][0]']              
 ormalization)                                                                                    
                                                                                                  
 activation_47 (Activation)     (None, 5, 5, 64)     0           ['batch_normalization_59[0][0]'] 
                                                                                                  
 add_11 (Add)                   (None, 20, 20, 512)  0           ['batch_normalization_67[0][0]', 
                                                                  'batch_normalization_68[0][0]'] 
                                                                                                  
 conv2d_70 (Conv2D)             (None, 5, 5, 128)    32896       ['activation_47[0][0]']          
                                                                                                  
 activation_54 (Activation)     (None, 20, 20, 512)  0           ['add_11[0][0]']                 
                                                                                                  
 batch_normalization_60 (BatchN  (None, 5, 5, 128)   512         ['conv2d_70[0][0]']              
 ormalization)                                                                                    
                                                                                                  
 average_pooling2d_8 (AveragePo  (None, 10, 10, 512)  0          ['activation_54[0][0]']          
 oling2D)                                                                                         
                                                                                                  
 activation_48 (Activation)     (None, 5, 5, 128)    0           ['batch_normalization_60[0][0]'] 
                                                                                                  
 average_pooling2d_9 (AveragePo  (None, 5, 5, 512)   0           ['average_pooling2d_8[0][0]']    
 oling2D)                                                                                         
                                                                                                  
 concatenate_4 (Concatenate)    (None, 5, 5, 640)    0           ['activation_48[0][0]',          
                                                                  'average_pooling2d_9[0][0]']    
                                                                                                  
 conv2d_80 (Conv2D)             (None, 5, 5, 2048)   1312768     ['concatenate_4[0][0]']          
                                                                                                  
 reshape_8 (Reshape)            (None, 25, 2048)     0           ['conv2d_80[0][0]']              
                                                                                                  
 lstm_4 (LSTM)                  (None, 25, 128)      1114624     ['reshape_8[0][0]']              
                                                                                                  
 flatten_4 (Flatten)            (None, 3200)         0           ['lstm_4[0][0]']                 
                                                                                                  
 dense_12 (Dense)               (None, 1024)         3277824     ['flatten_4[0][0]']              
                                                                                                  
 dropout_6 (Dropout)            (None, 1024)         0           ['dense_12[0][0]']               
                                                                                                  
 dense_13 (Dense)               (None, 2048)         2099200     ['dropout_6[0][0]']              
                                                                                                  
 dense_14 (Dense)               (None, 6144)         12589056    ['dense_13[0][0]']               
                                                                                                  
 reshape_9 (Reshape)            (None, 4, 1536)      0           ['dense_14[0][0]']               
                                                                                                  
 denorm_output (Lambda)         (None, 4, 1536)      0           ['reshape_9[0][0]']              
                                                                                                  
==================================================================================================
Total params: 29,771,837
Trainable params: 29,765,216
Non-trainable params: 6,621
__________________________________________________________________________________________________
…
__________________________________________________________________________________________________
 Layer (type)                   Output Shape         Param #     Connected to                     
==================================================================================================
 srs_input (InputLayer)         [(None, 20, 20, 153  0           []                               
                                6)]                                                               
                                                                                                  
 conv2d_137 (Conv2D)            (None, 20, 20, 512)  7078400     ['srs_input[0][0]']              
                                                                                                  
 conv2d_138 (Conv2D)            (None, 20, 20, 256)  131328      ['conv2d_137[0][0]']             
                                                                                                  
 batch_normalization_117 (Batch  (None, 20, 20, 256)  1024       ['conv2d_138[0][0]']             
 Normalization)                                                                                   
                                                                                                  
 activation_95 (Activation)     (None, 20, 20, 256)  0           ['batch_normalization_117[0][0]']
                                                                                                  
 conv2d_139 (Conv2D)            (None, 20, 20, 256)  590080      ['activation_95[0][0]']          
                                                                                                  
 batch_normalization_118 (Batch  (None, 20, 20, 256)  1024       ['conv2d_139[0][0]']             
 Normalization)                                                                                   
                                                                                                  
 activation_96 (Activation)     (None, 20, 20, 256)  0           ['batch_normalization_118[0][0]']
                                                                                                  
 conv2d_140 (Conv2D)            (None, 20, 20, 512)  131584      ['activation_96[0][0]']          
                                                                                                  
 conv2d_141 (Conv2D)            (None, 20, 20, 512)  262656      ['conv2d_137[0][0]']             
                                                                                                  
 radio_input (InputLayer)       [(None, 5, 4, 14)]   0           []                               
                                                                                                  
 batch_normalization_119 (Batch  (None, 20, 20, 512)  2048       ['conv2d_140[0][0]']             
 Normalization)                                                                                   
                                                                                                  
 batch_normalization_120 (Batch  (None, 20, 20, 512)  2048       ['conv2d_141[0][0]']             
 Normalization)                                                                                   
                                                                                                  
 normalization_11 (Normalizatio  (None, 5, 4, 14)    29          ['radio_input[0][0]']            
 n)                                                                                               
                                                                                                  
 add_20 (Add)                   (None, 20, 20, 512)  0           ['batch_normalization_119[0][0]',
                                                                  'batch_normalization_120[0][0]']
                                                                                                  
 conv2d_133 (Conv2D)            (None, 5, 4, 32)     4064        ['normalization_11[0][0]']       
                                                                                                  
 activation_97 (Activation)     (None, 20, 20, 512)  0           ['add_20[0][0]']                 
                                                                                                  
 batch_normalization_113 (Batch  (None, 5, 4, 32)    128         ['conv2d_133[0][0]']             
 Normalization)                                                                                   
                                                                                                  
 conv2d_142 (Conv2D)            (None, 20, 20, 256)  131328      ['activation_97[0][0]']          
                                                                                                  
 activation_91 (Activation)     (None, 5, 4, 32)     0           ['batch_normalization_113[0][0]']
                                                                                                  
 batch_normalization_121 (Batch  (None, 20, 20, 256)  1024       ['conv2d_142[0][0]']             
 Normalization)                                                                                   
                                                                                                  
 zero_padding2d_11 (ZeroPadding  (None, 5, 5, 32)    0           ['activation_91[0][0]']          
 2D)                                                                                              
                                                                                                  
 activation_98 (Activation)     (None, 20, 20, 256)  0           ['batch_normalization_121[0][0]']
                                                                                                  
 conv2d_134 (Conv2D)            (None, 5, 5, 64)     18496       ['zero_padding2d_11[0][0]']      
                                                                                                  
 conv2d_143 (Conv2D)            (None, 20, 20, 256)  590080      ['activation_98[0][0]']          
                                                                                                  
 batch_normalization_114 (Batch  (None, 5, 5, 64)    256         ['conv2d_134[0][0]']             
 Normalization)                                                                                   
                                                                                                  
 batch_normalization_122 (Batch  (None, 20, 20, 256)  1024       ['conv2d_143[0][0]']             
 Normalization)                                                                                   
                                                                                                  
 activation_92 (Activation)     (None, 5, 5, 64)     0           ['batch_normalization_114[0][0]']
                                                                                                  
 activation_99 (Activation)     (None, 20, 20, 256)  0           ['batch_normalization_122[0][0]']
                                                                                                  
 conv2d_135 (Conv2D)            (None, 5, 5, 128)    32896       ['activation_92[0][0]']          
                                                                                                  
 conv2d_144 (Conv2D)            (None, 20, 20, 512)  131584      ['activation_99[0][0]']          
                                                                                                  
 conv2d_145 (Conv2D)            (None, 20, 20, 512)  262656      ['activation_97[0][0]']          
                                                                                                  
 batch_normalization_115 (Batch  (None, 5, 5, 128)   512         ['conv2d_135[0][0]']             
 Normalization)                                                                                   
                                                                                                  
 batch_normalization_123 (Batch  (None, 20, 20, 512)  2048       ['conv2d_144[0][0]']             
 Normalization)                                                                                   
                                                                                                  
 batch_normalization_124 (Batch  (None, 20, 20, 512)  2048       ['conv2d_145[0][0]']             
 Normalization)                                                                                   
                                                                                                  
 activation_93 (Activation)     (None, 5, 5, 128)    0           ['batch_normalization_115[0][0]']
                                                                                                  
 add_21 (Add)                   (None, 20, 20, 512)  0           ['batch_normalization_123[0][0]',
                                                                  'batch_normalization_124[0][0]']
                                                                                                  
 conv2d_136 (Conv2D)            (None, 5, 5, 256)    131328      ['activation_93[0][0]']          
                                                                                                  
 activation_100 (Activation)    (None, 20, 20, 512)  0           ['add_21[0][0]']                 
                                                                                                  
 batch_normalization_116 (Batch  (None, 5, 5, 256)   1024        ['conv2d_136[0][0]']             
 Normalization)                                                                                   
                                                                                                  
 average_pooling2d_18 (AverageP  (None, 10, 10, 512)  0          ['activation_100[0][0]']         
 ooling2D)                                                                                        
                                                                                                  
 activation_94 (Activation)     (None, 5, 5, 256)    0           ['batch_normalization_116[0][0]']
                                                                                                  
 average_pooling2d_19 (AverageP  (None, 5, 5, 512)   0           ['average_pooling2d_18[0][0]']   
 ooling2D)                                                                                        
                                                                                                  
 concatenate_9 (Concatenate)    (None, 5, 5, 768)    0           ['activation_94[0][0]',          
                                                                  'average_pooling2d_19[0][0]']   
                                                                                                  
 conv2d_146 (Conv2D)            (None, 5, 5, 1024)   787456      ['concatenate_9[0][0]']          
                                                                                                  
 reshape_18 (Reshape)           (None, 25, 1024)     0           ['conv2d_146[0][0]']             
                                                                                                  
 lstm_9 (LSTM)                  (None, 25, 128)      590336      ['reshape_18[0][0]']             
                                                                                                  
 flatten_9 (Flatten)            (None, 3200)         0           ['lstm_9[0][0]']                 
                                                                                                  
 dense_27 (Dense)               (None, 1024)         3277824     ['flatten_9[0][0]']              
                                                                                                  
 dropout_11 (Dropout)           (None, 1024)         0           ['dense_27[0][0]']               
                                                                                                  
 dense_28 (Dense)               (None, 2048)         2099200     ['dropout_11[0][0]']             
                                                                                                  
 dense_29 (Dense)               (None, 6144)         12589056    ['dense_28[0][0]']               
                                                                                                  
 reshape_19 (Reshape)           (None, 4, 1536)      0           ['dense_29[0][0]']               
                                                                                                  
 denorm_output (Lambda)         (None, 4, 1536)      0           ['reshape_19[0][0]']             
                                                                                                  
==================================================================================================
Total params: 28,854,589
Trainable params: 28,847,456
Non-trainable params: 7,133
__________________________________________________________________________________________________
…
