…
__________________________________________________________________________________________________
 Layer (type)                   Output Shape         Param #     Connected to                     
==================================================================================================
 srs_input (InputLayer)         [(None, 20, 20, 153  0           []                               
                                6)]                                                               
                                                                                                  
 conv2d_144 (Conv2D)            (None, 20, 20, 512)  7078400     ['srs_input[0][0]']              
                                                                                                  
 conv2d_145 (Conv2D)            (None, 20, 20, 256)  131328      ['conv2d_144[0][0]']             
                                                                                                  
 batch_normalization_124 (Batch  (None, 20, 20, 256)  1024       ['conv2d_145[0][0]']             
 Normalization)                                                                                   
                                                                                                  
 activation_104 (Activation)    (None, 20, 20, 256)  0           ['batch_normalization_124[0][0]']
                                                                                                  
 conv2d_146 (Conv2D)            (None, 20, 20, 256)  590080      ['activation_104[0][0]']         
                                                                                                  
 batch_normalization_125 (Batch  (None, 20, 20, 256)  1024       ['conv2d_146[0][0]']             
 Normalization)                                                                                   
                                                                                                  
 activation_105 (Activation)    (None, 20, 20, 256)  0           ['batch_normalization_125[0][0]']
                                                                                                  
 conv2d_147 (Conv2D)            (None, 20, 20, 512)  131584      ['activation_105[0][0]']         
                                                                                                  
 conv2d_148 (Conv2D)            (None, 20, 20, 512)  262656      ['conv2d_144[0][0]']             
                                                                                                  
 radio_input (InputLayer)       [(None, 5, 4, 14)]   0           []                               
                                                                                                  
 batch_normalization_126 (Batch  (None, 20, 20, 512)  2048       ['conv2d_147[0][0]']             
 Normalization)                                                                                   
                                                                                                  
 batch_normalization_127 (Batch  (None, 20, 20, 512)  2048       ['conv2d_148[0][0]']             
 Normalization)                                                                                   
                                                                                                  
 normalization_10 (Normalizatio  (None, 5, 4, 14)    29          ['radio_input[0][0]']            
 n)                                                                                               
                                                                                                  
 add_20 (Add)                   (None, 20, 20, 512)  0           ['batch_normalization_126[0][0]',
                                                                  'batch_normalization_127[0][0]']
                                                                                                  
 conv2d_140 (Conv2D)            (None, 5, 4, 32)     4064        ['normalization_10[0][0]']       
                                                                                                  
 activation_106 (Activation)    (None, 20, 20, 512)  0           ['add_20[0][0]']                 
                                                                                                  
 batch_normalization_120 (Batch  (None, 5, 4, 32)    128         ['conv2d_140[0][0]']             
 Normalization)                                                                                   
                                                                                                  
 conv2d_149 (Conv2D)            (None, 20, 20, 256)  131328      ['activation_106[0][0]']         
                                                                                                  
 activation_100 (Activation)    (None, 5, 4, 32)     0           ['batch_normalization_120[0][0]']
                                                                                                  
 batch_normalization_128 (Batch  (None, 20, 20, 256)  1024       ['conv2d_149[0][0]']             
 Normalization)                                                                                   
                                                                                                  
 zero_padding2d_10 (ZeroPadding  (None, 5, 5, 32)    0           ['activation_100[0][0]']         
 2D)                                                                                              
                                                                                                  
 activation_107 (Activation)    (None, 20, 20, 256)  0           ['batch_normalization_128[0][0]']
                                                                                                  
 conv2d_141 (Conv2D)            (None, 5, 5, 64)     18496       ['zero_padding2d_10[0][0]']      
                                                                                                  
 conv2d_150 (Conv2D)            (None, 20, 20, 256)  590080      ['activation_107[0][0]']         
                                                                                                  
 batch_normalization_121 (Batch  (None, 5, 5, 64)    256         ['conv2d_141[0][0]']             
 Normalization)                                                                                   
                                                                                                  
 batch_normalization_129 (Batch  (None, 20, 20, 256)  1024       ['conv2d_150[0][0]']             
 Normalization)                                                                                   
                                                                                                  
 activation_101 (Activation)    (None, 5, 5, 64)     0           ['batch_normalization_121[0][0]']
                                                                                                  
 activation_108 (Activation)    (None, 20, 20, 256)  0           ['batch_normalization_129[0][0]']
                                                                                                  
 conv2d_142 (Conv2D)            (None, 5, 5, 128)    32896       ['activation_101[0][0]']         
                                                                                                  
 conv2d_151 (Conv2D)            (None, 20, 20, 512)  131584      ['activation_108[0][0]']         
                                                                                                  
 conv2d_152 (Conv2D)            (None, 20, 20, 512)  262656      ['activation_106[0][0]']         
                                                                                                  
 batch_normalization_122 (Batch  (None, 5, 5, 128)   512         ['conv2d_142[0][0]']             
 Normalization)                                                                                   
                                                                                                  
 batch_normalization_130 (Batch  (None, 20, 20, 512)  2048       ['conv2d_151[0][0]']             
 Normalization)                                                                                   
                                                                                                  
 batch_normalization_131 (Batch  (None, 20, 20, 512)  2048       ['conv2d_152[0][0]']             
 Normalization)                                                                                   
                                                                                                  
 activation_102 (Activation)    (None, 5, 5, 128)    0           ['batch_normalization_122[0][0]']
                                                                                                  
 add_21 (Add)                   (None, 20, 20, 512)  0           ['batch_normalization_130[0][0]',
                                                                  'batch_normalization_131[0][0]']
                                                                                                  
 conv2d_143 (Conv2D)            (None, 5, 5, 256)    131328      ['activation_102[0][0]']         
                                                                                                  
 activation_109 (Activation)    (None, 20, 20, 512)  0           ['add_21[0][0]']                 
                                                                                                  
 batch_normalization_123 (Batch  (None, 5, 5, 256)   1024        ['conv2d_143[0][0]']             
 Normalization)                                                                                   
                                                                                                  
 average_pooling2d_20 (AverageP  (None, 10, 10, 512)  0          ['activation_109[0][0]']         
 ooling2D)                                                                                        
                                                                                                  
 activation_103 (Activation)    (None, 5, 5, 256)    0           ['batch_normalization_123[0][0]']
                                                                                                  
 average_pooling2d_21 (AverageP  (None, 5, 5, 512)   0           ['average_pooling2d_20[0][0]']   
 ooling2D)                                                                                        
                                                                                                  
 concatenate_10 (Concatenate)   (None, 5, 5, 768)    0           ['activation_103[0][0]',         
                                                                  'average_pooling2d_21[0][0]']   
                                                                                                  
 conv2d_153 (Conv2D)            (None, 5, 5, 1024)   787456      ['concatenate_10[0][0]']         
                                                                                                  
 reshape_20 (Reshape)           (None, 25, 1024)     0           ['conv2d_153[0][0]']             
                                                                                                  
 lstm_8 (LSTM)                  (None, 25, 128)      590336      ['reshape_20[0][0]']             
                                                                                                  
 flatten_10 (Flatten)           (None, 3200)         0           ['lstm_8[0][0]']                 
                                                                                                  
 dense_30 (Dense)               (None, 1024)         3277824     ['flatten_10[0][0]']             
                                                                                                  
 dropout_10 (Dropout)           (None, 1024)         0           ['dense_30[0][0]']               
                                                                                                  
 dense_31 (Dense)               (None, 2048)         2099200     ['dropout_10[0][0]']             
                                                                                                  
 dense_32 (Dense)               (None, 6144)         12589056    ['dense_31[0][0]']               
                                                                                                  
 reshape_21 (Reshape)           (None, 4, 1536)      0           ['dense_32[0][0]']               
                                                                                                  
 denorm_output (Lambda)         (None, 4, 1536)      0           ['reshape_21[0][0]']             
                                                                                                  
==================================================================================================
Total params: 28,854,589
Trainable params: 28,847,456
Non-trainable params: 7,133
__________________________________________________________________________________________________
…
