…
__________________________________________________________________________________________________
 Layer (type)                   Output Shape         Param #     Connected to                     
==================================================================================================
 srs_input (InputLayer)         [(None, 20, 20, 153  0           []                               
                                6)]                                                               
                                                                                                  
 conv2d_135 (Conv2D)            (None, 20, 20, 512)  7078400     ['srs_input[0][0]']              
                                                                                                  
 conv2d_136 (Conv2D)            (None, 20, 20, 128)  65664       ['conv2d_135[0][0]']             
                                                                                                  
 batch_normalization_111 (Batch  (None, 20, 20, 128)  512        ['conv2d_136[0][0]']             
 Normalization)                                                                                   
                                                                                                  
 activation_78 (Activation)     (None, 20, 20, 128)  0           ['batch_normalization_111[0][0]']
                                                                                                  
 conv2d_137 (Conv2D)            (None, 20, 20, 128)  147584      ['activation_78[0][0]']          
                                                                                                  
 batch_normalization_112 (Batch  (None, 20, 20, 128)  512        ['conv2d_137[0][0]']             
 Normalization)                                                                                   
                                                                                                  
 activation_79 (Activation)     (None, 20, 20, 128)  0           ['batch_normalization_112[0][0]']
                                                                                                  
 conv2d_138 (Conv2D)            (None, 20, 20, 256)  33024       ['activation_79[0][0]']          
                                                                                                  
 conv2d_139 (Conv2D)            (None, 20, 20, 256)  131328      ['conv2d_135[0][0]']             
                                                                                                  
 batch_normalization_113 (Batch  (None, 20, 20, 256)  1024       ['conv2d_138[0][0]']             
 Normalization)                                                                                   
                                                                                                  
 batch_normalization_114 (Batch  (None, 20, 20, 256)  1024       ['conv2d_139[0][0]']             
 Normalization)                                                                                   
                                                                                                  
 add_21 (Add)                   (None, 20, 20, 256)  0           ['batch_normalization_113[0][0]',
                                                                  'batch_normalization_114[0][0]']
                                                                                                  
 activation_80 (Activation)     (None, 20, 20, 256)  0           ['add_21[0][0]']                 
                                                                                                  
 conv2d_140 (Conv2D)            (None, 20, 20, 256)  65792       ['activation_80[0][0]']          
                                                                                                  
 radio_input (InputLayer)       [(None, 5, 4, 14)]   0           []                               
                                                                                                  
 batch_normalization_115 (Batch  (None, 20, 20, 256)  1024       ['conv2d_140[0][0]']             
 Normalization)                                                                                   
                                                                                                  
 normalization_10 (Normalizatio  (None, 5, 4, 14)    29          ['radio_input[0][0]']            
 n)                                                                                               
                                                                                                  
 activation_81 (Activation)     (None, 20, 20, 256)  0           ['batch_normalization_115[0][0]']
                                                                                                  
 conv2d_132 (Conv2D)            (None, 5, 4, 32)     4064        ['normalization_10[0][0]']       
                                                                                                  
 conv2d_141 (Conv2D)            (None, 20, 20, 256)  590080      ['activation_81[0][0]']          
                                                                                                  
 batch_normalization_108 (Batch  (None, 5, 4, 32)    128         ['conv2d_132[0][0]']             
 Normalization)                                                                                   
                                                                                                  
 batch_normalization_116 (Batch  (None, 20, 20, 256)  1024       ['conv2d_141[0][0]']             
 Normalization)                                                                                   
                                                                                                  
 activation_75 (Activation)     (None, 5, 4, 32)     0           ['batch_normalization_108[0][0]']
                                                                                                  
 activation_82 (Activation)     (None, 20, 20, 256)  0           ['batch_normalization_116[0][0]']
                                                                                                  
 zero_padding2d_11 (ZeroPadding  (None, 5, 5, 32)    0           ['activation_75[0][0]']          
 2D)                                                                                              
                                                                                                  
 conv2d_142 (Conv2D)            (None, 20, 20, 512)  131584      ['activation_82[0][0]']          
                                                                                                  
 conv2d_143 (Conv2D)            (None, 20, 20, 512)  131584      ['activation_80[0][0]']          
                                                                                                  
 conv2d_133 (Conv2D)            (None, 5, 5, 64)     18496       ['zero_padding2d_11[0][0]']      
                                                                                                  
 batch_normalization_117 (Batch  (None, 20, 20, 512)  2048       ['conv2d_142[0][0]']             
 Normalization)                                                                                   
                                                                                                  
 batch_normalization_118 (Batch  (None, 20, 20, 512)  2048       ['conv2d_143[0][0]']             
 Normalization)                                                                                   
                                                                                                  
 batch_normalization_109 (Batch  (None, 5, 5, 64)    256         ['conv2d_133[0][0]']             
 Normalization)                                                                                   
                                                                                                  
 add_22 (Add)                   (None, 20, 20, 512)  0           ['batch_normalization_117[0][0]',
                                                                  'batch_normalization_118[0][0]']
                                                                                                  
 activation_76 (Activation)     (None, 5, 5, 64)     0           ['batch_normalization_109[0][0]']
                                                                                                  
 activation_83 (Activation)     (None, 20, 20, 512)  0           ['add_22[0][0]']                 
                                                                                                  
 conv2d_134 (Conv2D)            (None, 5, 5, 128)    32896       ['activation_76[0][0]']          
                                                                                                  
 average_pooling2d_22 (AverageP  (None, 10, 10, 512)  0          ['activation_83[0][0]']          
 ooling2D)                                                                                        
                                                                                                  
 batch_normalization_110 (Batch  (None, 5, 5, 128)   512         ['conv2d_134[0][0]']             
 Normalization)                                                                                   
                                                                                                  
 average_pooling2d_23 (AverageP  (None, 5, 5, 512)   0           ['average_pooling2d_22[0][0]']   
 ooling2D)                                                                                        
                                                                                                  
 activation_77 (Activation)     (None, 5, 5, 128)    0           ['batch_normalization_110[0][0]']
                                                                                                  
 batch_normalization_119 (Batch  (None, 5, 5, 512)   2048        ['average_pooling2d_23[0][0]']   
 Normalization)                                                                                   
                                                                                                  
 concatenate_12 (Concatenate)   (None, 5, 5, 640)    0           ['activation_77[0][0]',          
                                                                  'batch_normalization_119[0][0]']
                                                                                                  
 conv2d_144 (Conv2D)            (None, 5, 5, 1024)   656384      ['concatenate_12[0][0]']         
                                                                                                  
 reshape_21 (Reshape)           (None, 25, 1024)     0           ['conv2d_144[0][0]']             
                                                                                                  
 lstm_11 (LSTM)                 (None, 25, 128)      590336      ['reshape_21[0][0]']             
                                                                                                  
 flatten_10 (Flatten)           (None, 3200)         0           ['lstm_11[0][0]']                
                                                                                                  
 dense_32 (Dense)               (None, 1024)         3277824     ['flatten_10[0][0]']             
                                                                                                  
 dropout_9 (Dropout)            (None, 1024)         0           ['dense_32[0][0]']               
                                                                                                  
 dense_33 (Dense)               (None, 2048)         2099200     ['dropout_9[0][0]']              
                                                                                                  
 dense_34 (Dense)               (None, 6144)         12589056    ['dense_33[0][0]']               
                                                                                                  
 reshape_22 (Reshape)           (None, 4, 1536)      0           ['dense_34[0][0]']               
                                                                                                  
 denorm_output (Lambda)         (None, 4, 1536)      0           ['reshape_22[0][0]']             
                                                                                                  
==================================================================================================
Total params: 27,655,485
Trainable params: 27,649,376
Non-trainable params: 6,109
__________________________________________________________________________________________________
…
__________________________________________________________________________________________________
 Layer (type)                   Output Shape         Param #     Connected to                     
==================================================================================================
 srs_input (InputLayer)         [(None, 20, 20, 153  0           []                               
                                6)]                                                               
                                                                                                  
 conv2d_148 (Conv2D)            (None, 20, 20, 512)  7078400     ['srs_input[0][0]']              
                                                                                                  
 conv2d_149 (Conv2D)            (None, 20, 20, 128)  65664       ['conv2d_148[0][0]']             
                                                                                                  
 batch_normalization_123 (Batch  (None, 20, 20, 128)  512        ['conv2d_149[0][0]']             
 Normalization)                                                                                   
                                                                                                  
 activation_87 (Activation)     (None, 20, 20, 128)  0           ['batch_normalization_123[0][0]']
                                                                                                  
 conv2d_150 (Conv2D)            (None, 20, 20, 128)  147584      ['activation_87[0][0]']          
                                                                                                  
 batch_normalization_124 (Batch  (None, 20, 20, 128)  512        ['conv2d_150[0][0]']             
 Normalization)                                                                                   
                                                                                                  
 activation_88 (Activation)     (None, 20, 20, 128)  0           ['batch_normalization_124[0][0]']
                                                                                                  
 conv2d_151 (Conv2D)            (None, 20, 20, 256)  33024       ['activation_88[0][0]']          
                                                                                                  
 conv2d_152 (Conv2D)            (None, 20, 20, 256)  131328      ['conv2d_148[0][0]']             
                                                                                                  
 batch_normalization_125 (Batch  (None, 20, 20, 256)  1024       ['conv2d_151[0][0]']             
 Normalization)                                                                                   
                                                                                                  
 batch_normalization_126 (Batch  (None, 20, 20, 256)  1024       ['conv2d_152[0][0]']             
 Normalization)                                                                                   
                                                                                                  
 add_23 (Add)                   (None, 20, 20, 256)  0           ['batch_normalization_125[0][0]',
                                                                  'batch_normalization_126[0][0]']
                                                                                                  
 activation_89 (Activation)     (None, 20, 20, 256)  0           ['add_23[0][0]']                 
                                                                                                  
 radio_input (InputLayer)       [(None, 5, 4, 14)]   0           []                               
                                                                                                  
 conv2d_153 (Conv2D)            (None, 20, 20, 256)  65792       ['activation_89[0][0]']          
                                                                                                  
 normalization_11 (Normalizatio  (None, 5, 4, 14)    29          ['radio_input[0][0]']            
 n)                                                                                               
                                                                                                  
 batch_normalization_127 (Batch  (None, 20, 20, 256)  1024       ['conv2d_153[0][0]']             
 Normalization)                                                                                   
                                                                                                  
 conv2d_145 (Conv2D)            (None, 5, 4, 32)     4064        ['normalization_11[0][0]']       
                                                                                                  
 activation_90 (Activation)     (None, 20, 20, 256)  0           ['batch_normalization_127[0][0]']
                                                                                                  
 batch_normalization_120 (Batch  (None, 5, 4, 32)    128         ['conv2d_145[0][0]']             
 Normalization)                                                                                   
                                                                                                  
 conv2d_154 (Conv2D)            (None, 20, 20, 256)  590080      ['activation_90[0][0]']          
                                                                                                  
 activation_84 (Activation)     (None, 5, 4, 32)     0           ['batch_normalization_120[0][0]']
                                                                                                  
 batch_normalization_128 (Batch  (None, 20, 20, 256)  1024       ['conv2d_154[0][0]']             
 Normalization)                                                                                   
                                                                                                  
 zero_padding2d_12 (ZeroPadding  (None, 5, 5, 32)    0           ['activation_84[0][0]']          
 2D)                                                                                              
                                                                                                  
 activation_91 (Activation)     (None, 20, 20, 256)  0           ['batch_normalization_128[0][0]']
                                                                                                  
 conv2d_146 (Conv2D)            (None, 5, 5, 64)     18496       ['zero_padding2d_12[0][0]']      
                                                                                                  
 conv2d_155 (Conv2D)            (None, 20, 20, 512)  131584      ['activation_91[0][0]']          
                                                                                                  
 conv2d_156 (Conv2D)            (None, 20, 20, 512)  131584      ['activation_89[0][0]']          
                                                                                                  
 batch_normalization_121 (Batch  (None, 5, 5, 64)    256         ['conv2d_146[0][0]']             
 Normalization)                                                                                   
                                                                                                  
 batch_normalization_129 (Batch  (None, 20, 20, 512)  2048       ['conv2d_155[0][0]']             
 Normalization)                                                                                   
                                                                                                  
 batch_normalization_130 (Batch  (None, 20, 20, 512)  2048       ['conv2d_156[0][0]']             
 Normalization)                                                                                   
                                                                                                  
 activation_85 (Activation)     (None, 5, 5, 64)     0           ['batch_normalization_121[0][0]']
                                                                                                  
 add_24 (Add)                   (None, 20, 20, 512)  0           ['batch_normalization_129[0][0]',
                                                                  'batch_normalization_130[0][0]']
                                                                                                  
 conv2d_147 (Conv2D)            (None, 5, 5, 128)    32896       ['activation_85[0][0]']          
                                                                                                  
 activation_92 (Activation)     (None, 20, 20, 512)  0           ['add_24[0][0]']                 
                                                                                                  
 batch_normalization_122 (Batch  (None, 5, 5, 128)   512         ['conv2d_147[0][0]']             
 Normalization)                                                                                   
                                                                                                  
 average_pooling2d_24 (AverageP  (None, 10, 10, 512)  0          ['activation_92[0][0]']          
 ooling2D)                                                                                        
                                                                                                  
 activation_86 (Activation)     (None, 5, 5, 128)    0           ['batch_normalization_122[0][0]']
                                                                                                  
 average_pooling2d_25 (AverageP  (None, 5, 5, 512)   0           ['average_pooling2d_24[0][0]']   
 ooling2D)                                                                                        
                                                                                                  
 concatenate_13 (Concatenate)   (None, 5, 5, 640)    0           ['activation_86[0][0]',          
                                                                  'average_pooling2d_25[0][0]']   
                                                                                                  
 conv2d_157 (Conv2D)            (None, 5, 5, 1024)   656384      ['concatenate_13[0][0]']         
                                                                                                  
 reshape_23 (Reshape)           (None, 25, 1024)     0           ['conv2d_157[0][0]']             
                                                                                                  
 lstm_12 (LSTM)                 (None, 25, 128)      590336      ['reshape_23[0][0]']             
                                                                                                  
 flatten_11 (Flatten)           (None, 3200)         0           ['lstm_12[0][0]']                
                                                                                                  
 dense_35 (Dense)               (None, 1024)         3277824     ['flatten_11[0][0]']             
                                                                                                  
 dropout_10 (Dropout)           (None, 1024)         0           ['dense_35[0][0]']               
                                                                                                  
 dense_36 (Dense)               (None, 2048)         2099200     ['dropout_10[0][0]']             
                                                                                                  
 dense_37 (Dense)               (None, 6144)         12589056    ['dense_36[0][0]']               
                                                                                                  
 reshape_24 (Reshape)           (None, 4, 1536)      0           ['dense_37[0][0]']               
                                                                                                  
 denorm_output (Lambda)         (None, 4, 1536)      0           ['reshape_24[0][0]']             
                                                                                                  
==================================================================================================
Total params: 27,653,437
Trainable params: 27,648,352
Non-trainable params: 5,085
__________________________________________________________________________________________________
…
